…
Reloaded modules: pydevd_plugins.extensions, pydevd_plugins.pydevd_line_validation, pydevd_plugins.django_debug, pydevd_plugins.jinja2_debug, pydevd_plugins.extensions.types, pydevd_plugins.extensions.types.pydevd_helpers, pydevd_plugins.extensions.types.pydevd_plugin_numpy_types, pydevd_plugins.extensions.types.pydevd_plugin_pandas_types, pydevd_plugins.extensions.types.pydevd_plugins_django_form_str, pydevd_plugins.extensions.pydevd_plugin_omegaconf
Device being used: cuda:0
Training model on ucf101 dataset...
Training ver4_C3D_DSC2_Lite_FP32 from scratch...
Total params: 4.87M
----------------------------------------------------------------
        Layer (type)               Output Shape         Param #
================================================================
            Conv3d-1        [-1, 3, 16, 56, 56]              84
              ReLU-2        [-1, 3, 16, 56, 56]               0
         MaxPool3d-3        [-1, 3, 16, 28, 28]               0
            Conv3d-4       [-1, 64, 16, 28, 28]             256
              ReLU-5       [-1, 64, 16, 28, 28]               0
            Conv3d-6       [-1, 64, 16, 28, 28]           1,792
              ReLU-7       [-1, 64, 16, 28, 28]               0
         MaxPool3d-8        [-1, 64, 8, 14, 14]               0
            Conv3d-9       [-1, 128, 8, 14, 14]           8,320
             ReLU-10       [-1, 128, 8, 14, 14]               0
           Conv3d-11       [-1, 128, 8, 14, 14]           3,584
             ReLU-12       [-1, 128, 8, 14, 14]               0
        MaxPool3d-13         [-1, 128, 4, 7, 7]               0
           Conv3d-14         [-1, 256, 4, 7, 7]          33,024
             ReLU-15         [-1, 256, 4, 7, 7]               0
           Conv3d-16         [-1, 256, 4, 7, 7]           7,168
             ReLU-17         [-1, 256, 4, 7, 7]               0
        MaxPool3d-18         [-1, 256, 2, 4, 4]               0
           Conv3d-19         [-1, 512, 2, 4, 4]         131,584
             ReLU-20         [-1, 512, 2, 4, 4]               0
           Conv3d-21         [-1, 512, 2, 4, 4]          14,336
             ReLU-22         [-1, 512, 2, 4, 4]               0
        MaxPool3d-23         [-1, 512, 1, 2, 2]               0
           Conv3d-24         [-1, 512, 1, 2, 2]         262,656
             ReLU-25         [-1, 512, 1, 2, 2]               0
           Linear-26                 [-1, 2048]       4,196,352
             ReLU-27                 [-1, 2048]               0
          Dropout-28                 [-1, 2048]               0
           Linear-29                  [-1, 101]         206,949
================================================================
Total params: 4,866,105
Trainable params: 4,866,105
Non-trainable params: 0
----------------------------------------------------------------
Input size (MB): 0.57
Forward/backward pass size (MB): 36.35
Params size (MB): 18.56
Estimated Total Size (MB): 55.49
----------------------------------------------------------------
C3D(
  (conv1_dw): Conv3d(3, 3, kernel_size=(3, 3, 3), stride=(1, 1, 1), padding=(1, 1, 1), groups=3)
…
